docs/Cap10/modelo_cap_5.pt (torch, 434371 bytes, 10 tensors)

conv1.weight f4 [6, 1, 5, 5]
0	0xbf1643b3	-0.5869705
1	0xbf051cd5	-0.5199712
2	0xbe48ece5	-0.19621618
3	0x3e36bf4b	0.1784641
4	0x3d48fa1a	0.04906664
5	0xbe87a868	-0.2649567
6	0x3e505042	0.20343116
7	0x3e889fd9	0.26684454
8	0x3ecb0e45	0.39659324
9	0xbdaa570d	-0.08317385
10	0x3d350939	0.04419825
11	0x3e1e683e	0.15469453
12	0x3e8da284	0.27663052
13	0x3d8a7772	0.06761064
14	0xbe8d624a	-0.2761405
15	0x3da89e63	0.08233335
16	0x3d21f91c	0.03954421
17	0xbdd6940a	-0.10477455
18	0xbe0e4fc7	-0.1389762
19	0xbe094d90	-0.13408494
20	0x3e70b243	0.23505501
21	0x3e17d7ec	0.14828461
22	0xbd07dc9e	-0.03316938
23	0x3e6ffe70	0.23436904
24	0xbde60888	-0.11232096
25	0x3e1559ef	0.14585088
26	0xbcf81976	-0.030285578
27	0x3e6c5bc5	0.23081882
28	0xbd3b4ea2	-0.045729287
29	0xbe290921	-0.16507389
30	0x3e1c46ba	0.15261355
31	0x3e1ad7cf	0.15121387
32	0x3e8f4045	0.2797872
33	0xbe687282	-0.22699931
34	0xbd8e2beb	-0.069419704
35	0xbe35757c	-0.17720598
36	0xbd26e2ac	-0.040743515
37	0x3e824973	0.25446662
38	0x3d3bc906	0.045846008
39	0xbd89a800	-0.067214966
40	0x3d8b2530	0.06794202
41	0x3dcc65a9	0.09980328
42	0x3e50f4c3	0.20405869
43	0x3ef37e95	0.47557512
44	0x3e29adf0	0.16570258
45	0x3cc7834c	0.0243546
46	0x3d7699f0	0.0602054
47	0xbe866b06	-0.26253527
48	0xbe4b4f06	-0.19854364
49	0x3e2ab0c7	0.16668998
50	0x3d1c0140	0.03808713
51	0xbe102f0f	-0.14080451
52	0xbee7baa8	-0.45259595
53	0xbebef812	-0.37298638
54	0xbdfc60b0	-0.12323129
55	0x3e7876d7	0.24264084
56	0x3c94b0d9	0.018150734
57	0xbee62d6c	-0.4495653
58	0xbee1740a	-0.44033843
59	0xbeed081a	-0.46295244
60	0x3ec8b52d	0.39200726
61	0x3e25debd	0.16198249
62	0xbe9d02c5	-0.30666175
63	0xbebb8557	-0.36625168
64	0xbd0a05d8	-0.03369698
65	0x3eee2161	0.4650984
66	0x3f2d9a34	0.6781342
67	0x3eb9a870	0.3626132
68	0x3c4140b4	0.011795212
69	0x3e91ae8e	0.28453487
70	0xbcb741e2	-0.022370283
71	0x3f058e02	0.5216981
72	0x3e2031b1	0.15643956
73	0x3efeccc7	0.49765608
74	0x3d45780e	0.048210196
75	0xbdde4fc0	-0.10855055
76	0x3ebc9cc6	0.3683836
77	0x3ec931e2	0.3929587
78	0x3e18bed5	0.14916547
79	0xbc754eaa	-0.014972368
80	0x3eb6f1a3	0.3573123
81	0x3e94c1a3	0.29053983
82	0x3e1c03a1	0.1523576
83	0xbe8a5ef7	-0.27025577
84	0xbf037e6a	-0.5136477
85	0x3e870b42	0.26375777
86	0x3eac554a	0.3365882
87	0xbe488323	-0.19581275
88	0xbe7254d8	-0.23665178
89	0xbec54005	-0.38525406
90	0x3e8edfb5	0.2790505
91	0x3d3753cc	0.04475765
92	0x3d068bc4	0.032848135
93	0xbeb88788	-0.36040902
94	0xbe97dd97	-0.29661247
95	0xbdd7488d	-0.10511885
96	0x3e1bd8af	0.15219377
97	0xbd969310	-0.07352269
98	0xbd88463d	-0.06654022
99	0x3e1332a3	0.14374785
100	0xbc3c1d16	-0.011481544
101	0xbe9f050b	-0.31058535
102	0xbe7f31bc	-0.24921316
103	0x3e924183	0.28565606
104	0x3da53be7	0.08068066
105	0xbe8a316a	-0.26990825
106	0xbd5dbe3a	-0.054136492
107	0xbd15305d	-0.036423076
108	0x3e9c0d81	0.30479053
109	0x3e0615bc	0.13094229
110	0xbebb2430	-0.36551046
111	0xbdf985ad	-0.121837
112	0x3e34fe49	0.17675127
113	0x3eca72dc	0.39540756
114	0x3c6cc0a4	0.014450226
115	0xbe4123e0	-0.18861341
116	0x3d908524	0.070566446
117	0x3e4ce338	0.20008552
118	0x3e829af2	0.2550884
119	0x3e06094a	0.13089481
120	0x3d309652	0.043112107
121	0x3e625673	0.2210329
122	0x3e1ff757	0.15621696
123	0x3db11413	0.08646407
124	0x3e73c43a	0.23805323
125	0x3c9360e6	0.01799054
126	0x3cb2f229	0.021843987
127	0xbe94ede4	-0.29087746
128	0xbee0f7e5	-0.4393913
129	0xbea8fcd4	-0.33005393
130	0xbdce27ac	-0.100661606
131	0xbe3eefec	-0.1864621
132	0xbf1238a0	-0.5711765
133	0xbeae6570	-0.34061766
134	0xbd905078	-0.07046598
135	0xbe4aa20c	-0.19788378
136	0xbe906635	-0.28202978
137	0x3e3f2637	0.18666922
138	0x3e77053c	0.2412309
139	0x3d3983a7	0.04529157
140	0x3e511171	0.2041681
141	0x3ec5b92a	0.3861783
142	0x3ef59279	0.47963312
143	0x3e69b439	0.22822656
144	0x3ec1b513	0.3783346
145	0x3e3a155c	0.1817221
146	0x3ca3c6fc	0.019992344
147	0x3e1d6312	0.15369824
148	0x3e590273	0.2119234
149	0x3e57143a	0.2100381

conv1.bias f4 [6]
0	0xbc7083f7	-0.0146799
1	0xbe71dee6	-0.23620185
2	0x3d586135	0.05282708
3	0xbcd245e1	-0.025668086
4	0xbdcacc69	-0.099022694
5	0x3dc16a80	0.094441414

conv2.weight f4 [16, 6, 5, 5]
0	0xbe36b19f	-0.17841195
1	0xbe5d55e6	-0.21614799
2	0x3d2f977c	0.042869076
3	0xbd53dcc3	-0.051724207
4	0xbe3972eb	-0.18110244
5	0xbea9b91c	-0.3314904
6	0xbdae1a98	-0.08501166
7	0x3e034197	0.1281799
8	0x3cbb7e45	0.022887358
9	0xbd4d053e	-0.050053827
10	0xbe609994	-0.21933585
11	0xbe2e1d63	-0.17003398
12	0xbb298195	-0.002586459
13	0xbe0af653	-0.13570528
14	0x3e24f06b	0.16107337
15	0xbe634baf	-0.2219684
16	0xbd3c4459	-0.04596362
17	0x3e014311	0.1262324
18	0xbe62959f	-0.22127388
19	0xbe10be69	-0.14135136
20	0xbdb02634	-0.08601037
21	0xbdc8f8bf	-0.098130696
22	0x3c2dddff	0.01061201
23	0xbe259ad0	-0.16172338
24	0xbe8a4262	-0.2700377
25	0xbe82c992	-0.2554441
26	0xbd0fcd26	-0.035107754
27	0xbe0c71bd	-0.13715263
28	0xbd5648c0	-0.052315474
29	0xbe630b10	-0.22172189
30	0xbe4b2c3c	-0.19841093
31	0xbe059eec	-0.13048905
32	0x3d16df73	0.03683419
33	0xbd2587dc	-0.04041277
34	0xbe005b41	-0.1253481
35	0xbe8cbc8d	-0.27487603
36	0xbd9f4f90	-0.07778847
37	0x3dc049a5	0.093890466
38	0x3e31a72e	0.1734893
39	0x3d8e8d11	0.069605
40	0xbd8ba599	-0.068186946
41	0xbe5dd6e4	-0.21664006
42	0x3e249c89	0.16075338
43	0x3e3d4473	0.18483143
44	0x3dfe3cc4	0.12413934
45	0xbd8786c6	-0.06617503
46	0xbd6411c6	-0.055681013
47	0x3dd1fba1	0.102530725
48	0x3e025c4d	0.12730522
49	0x3df366ff	0.11884879
50	0x3d66f17f	0.056382652
51	0xbe2b2287	-0.1671239
52	0x3d337813	0.043815684
53	0x3e5e2530	0.21693873
54	0x3e137834	0.14401323
55	0x3e4418ac	0.19150037
56	0xbd57f23e	-0.052721255
57	0xbda6c2be	-0.08142613
58	0x3e58df7d	0.21179004
59	0x3dce2a6d	0.10066686
60	0x3c155ff0	0.009117112
61	0xbee3ffc0	-0.4453106
62	0xbe91220f	-0.28346297
63	0x3e410be7	0.18852197
64	0x3d414368	0.047183424
65	0x3e6a95f7	0.2290877
66	0xbe6c63d2	-0.23084953
67	0xbe91b5e9	-0.284591
68	0x3e6fa141	0.23401357
69	0x3e23bdb6	0.15990338
70	0x3d9e939d	0.07742999
71	0xbdc6fe81	-0.097165115
72	0xbe75c71e	-0.24001738
73	0x3e73eb49	0.23820223
74	0x3e2c1bd2	0.16807488
75	0xbc91a9af	-0.017781107
76	0xbe751de8	-0.2393719
77	0xbd97f3e2	-0.07419564
78	0x3dc647de	0.09681676
79	0xbe4ce16c	-0.20007867
80	0xbd670a64	-0.056406394
81	0xbecfa2f8	-0.40554023
82	0x3c833db5	0.016020635
83	0x3dda5ae0	0.10661864
84	0xbe996453	-0.29959354
85	0xbdfc38b7	-0.12315505
86	0xbeb215aa	-0.34782153
87	0x3c92c5f3	0.017916655
88	0x3e08a8a5	0.13345583
89	0xbde37ee6	-0.11108188
90	0x3d0a5141	0.033768896
91	0xbed22cb5	-0.41049734
92	0xbe841bfb	-0.25802597
93	0x3d01d09e	0.031693093
94	0x3ca47d0b	0.020079156
95	0x3cd6089f	0.026127158
96	0xbeac0146	-0.33594722
97	0xbd7dea07	-0.061990764
98	0x3dd44a16	0.10365693
99	0xbd6404ac	-0.055668518
100	0xbe89c86a	-0.26910716
101	0xbde457f8	-0.11149591
102	0x3da4c566	0.08045463
103	0xbe03ae5a	-0.12859479
104	0xbeb1490b	-0.3462604
105	0xbe620f29	-0.22076096
106	0x3da45925	0.080248155
107	0x3e5759ad	0.21030302
108	0xbe30edaa	-0.17278162
109	0xbe2f87b3	-0.17141609
110	0xbece5d08	-0.40305352
111	0xbce06d57	-0.027395887
112	0x3e64eafb	0.22355263
113	0xbe04dfd3	-0.12976007
114	0x3d7cd653	0.061727833
115	0xbe8a1ca4	-0.26974976
116	0x3da49fac	0.080382675
117	0x3e5e5db9	0.2171544
118	0xbc66a377	-0.014077059
119	0xbd02d725	-0.03194346
120	0xbde68387	-0.112555556
121	0x3e0a9d35	0.13536532
122	0x3e893e59	0.2680538
123	0xbdfaddaf	-0.12249314
124	0xbdf71277	-0.12064069
125	0xbd6c232d	-0.057650734
126	0xbe0f5778	-0.1399821
127	0x3d6aec7e	0.057354443
128	0xbcd3ebec	-0.025869332
129	0x3db50f24	0.088407785
130	0xbd0a8a3a	-0.03382323
131	0x3d72c31b	0.0592681
132	0x3db375d1	0.08762706
133	0xb96fdd38	-0.00022875227
134	0x3d4bde42	0.04977251
135	0xbe7a7e20	-0.24462175
136	0xbe1eac1d	-0.15495344
137	0xbe3aa160	-0.18225622
138	0xbcb65bef	-0.022260634
139	0xbd80cb5f	-0.0628879
140	0x3d693d67	0.056943323
141	0xbe1a2059	-0.15051402
142	0xbe99acbe	-0.30014604
143	0xbcc6adf1	-0.024252864
144	0xbd66b808	-0.05632785
145	0x3e0bd6e1	0.13656189
146	0xbc3cf621	-0.011533291
147	0xbdef9177	-0.11697667
148	0xbdcbe28c	-0.0995532
149	0xbdf22176	-0.118227884
150	0xbe46a3f4	-0.1939848
151	0xbe96b8c1	-0.2943783
152	0xbe1a2791	-0.15054156
153	0x3dae0447	0.084969096
154	0xbcac707f	-0.021049736
155	0xbdcf1beb	-0.10112747
156	0x3ddd3721	0.10801531
157	0x3d9d44cf	0.0767914
158	0xbcf7b9c7	-0.030239953
159	0xbe79559a	-0.2434906
160	0x3e780d96	0.24223933
161	0x3ea86e02	0.3289643
162	0x3e09035b	0.13380186
163	0xbe1341b1	-0.14380528
164	0xbe342f70	-0.17596221
165	0x3e66424a	0.22486225
166	0xbd5bfc29	-0.053707276
167	0x3d214e7f	0.0393815
168	0x3d7df85f	0.062004443
169	0xbda75e8c	-0.0817233
170	0x3c4bac1f	0.012431174
171	0xbd398be7	-0.045299437
172	0xbc19eeef	-0.009395345
173	0xbc975a59	-0.018475698
174	0xbd888d20	-0.066675425
175	0xbd2e9791	-0.042625014
176	0xbb93445d	-0.0044942335
177	0x3d4732b3	0.048632335
178	0xbd52c44b	-0.05145673
179	0x3d3e9726	0.046530865
180	0xbdc85c14	-0.097831875
181	0xbc6a19b4	-0.014288355
182	0xbd926655	-0.071484245
183	0x3d8f78d8	0.07005471
184	0xbcdf2b73	-0.027242398
185	0xbd44caee	-0.04804509
186	0xbaf3a6ec	-0.0018589175
187	0xbd1c3162	-0.038133033
188	0x3d56db2d	0.052455116
189	0x3de85d77	0.11345952
190	0x3df646dc	0.12025234
191	0x3d1f52bf	0.038897272
192	0xbe3e8c21	-0.18608142
193	0xbdee8684	-0.116467506
194	0x3dc22a51	0.094807275
195	0xbd09509c	-0.03352414
196	0xbd9f553f	-0.07779931
197	0xbe8a02bf	-0.2695522
198	0xbe2e47be	-0.17019555
199	0xbdad417c	-0.08459756
200	0xbe40cf9e	-0.188292
201	0xbd64a8d5	-0.055825073
202	0x3cc2ddb9	0.023787366
203	0xbde97327	-0.11398917
204	0x3da20f99	0.07913131
205	0xbc352727	-0.011056698
206	0x3d1b7b61	0.03795946
207	0xbe71faf0	-0.23630881
208	0xbe42e056	-0.1903089
209	0x3d8f2d8c	0.06991109
210	0xbe31cb47	-0.173627
211	0xbdc59d38	-0.09649128
212	0xbea34b9a	-0.31893617
213	0xbd89e478	-0.0673303
214	0x3e1177a4	0.14205796
215	0xbe61c24e	-0.22046778
216	0x3cc7255b	0.024309805
217	0xbd8d62bf	-0.069036
218	0xbeb4be69	-0.3530152
219	0x3e2b2fe2	0.16717485
220	0xbcafc8e6	-0.0214581
221	0xbc78964f	-0.015172555
222	0xbc7f1f19	-0.015571379
223	0xbe5f01cb	-0.21778028
224	0x3d13338c	0.03593783
225	0x3936036b	0.00017358146
226	0xbea88745	-0.32915702
227	0xbe0bc917	-0.13650928
228	0xbe419df0	-0.18907905
229	0x3b95d033	0.0045719384
230	0xbeb48e1e	-0.35264677
231	0xbe74f86f	-0.23922895
232	0xbdb11c55	-0.08647982
233	0x3cf7404c	0.030182026
234	0x3cdaa850	0.026691586
235	0xbd856151	-0.06512702
236	0x3e807eb1	0.25096658
237	0x3e6908c1	0.22757246
238	0xbe0488b3	-0.12942772
239	0xbc819eb6	-0.01582275
240	0x3e52f67b	0.20601837
241	0x3e2bcac5	0.16776569
242	0xbd906c20	-0.07051873
243	0xbe8a91e2	-0.27064425
244	0x3e170103	0.1474648
245	0x3e4263a1	0.18983318
246	0x3df8e06c	0.1215218
247	0x3af81de4	0.0018929807
248	0x3d9fdafb	0.07805439
249	0x3e297a72	0.16550615
250	0xbe333f7a	-0.17504683
251	0xbda6fa83	-0.0815325
252	0x3abbe6a3	0.0014335703
253	0x3e0c53a7	0.13703786
254	0x3cc0f11d	0.023552472
255	0x3d14db6e	0.036342077

conv2.bias f4 [16]
0	0xbc365cb9	-0.011130505
1	0x3d116fb5	0.035506923
2	0xbdb6c38d	-0.08924017
3	0xbd97d440	-0.0741353
4	0xbcf2da41	-0.029645087
5	0xbe238c55	-0.15971501
6	0xbdada8c8	-0.08479458
7	0xbda835e1	-0.082134016
8	0xbd6a03f0	-0.05713266
9	0xbd11a133	-0.035554122
10	0xbd9de606	-0.07709889
11	0xbe39095b	-0.18069975
12	0xbd6c18c4	-0.057640806
13	0xbe245520	-0.16048098
14	0xbe7bf411	-0.24604823
15	0xbe4ae91f	-0.19815491

lin1.weight f4 [120, 784]
0	0x3d3468f9	0.044045422
1	0xbdeb34ac	-0.11484656
2	0xbe016f1a	-0.12640038
3	0xbd7ccda7	-0.061719563
4	0xbe402989	-0.18765844
5	0xbe86951b	-0.26285633
6	0x3d0291c8	0.03187731
7	0x3e25eee8	0.16204417
8	0x3cc248ef	0.023716418
9	0xbd429178	-0.04750201
10	0xbe8d8dfc	-0.27647388
11	0xbdf2b77e	-0.118514046
12	0xbdf91bf6	-0.12163536
13	0x3e379374	0.17927343
14	0x3e1b017e	0.15137288
15	0x3dc01a83	0.09380057
16	0xbc8cbba4	-0.017179318
17	0xbe2f2d5a	-0.17107144
18	0xbe580caf	-0.21098588
19	0xbcde7c48	-0.027158871
20	0xbac73d07	-0.0015200683
21	0x3ccbad1c	0.024862818
22	0x3d1bef6f	0.03807014
23	0xbdd876ac	-0.1056951
24	0x3db58e2b	0.08865007
25	0x3d6dc268	0.05804673
26	0x3d976aed	0.07393441
27	0xbdfb7f13	-0.12280097
28	0x3c874ab4	0.016515113
29	0xbdabc614	-0.0838739
30	0xbdee8a55	-0.116474785
31	0x3d3614f4	0.044453576
32	0xbdd1ee93	-0.102505825
33	0xbd1cca64	-0.038278952
34	0xbe41580e	-0.18881246
35	0x3d000bb9	0.03126118
36	0xbc4cd1b1	-0.012501166
37	0x3cf176d0	0.0294756
38	0xbce85fda	-0.028366018
39	0xbdd13e61	-0.10216976
40	0xbdbc8fb9	-0.092071004
41	0xbd4c8b27	-0.049937394
42	0x3da97855	0.08274905
43	0x3dd50949	0.10402162
44	0x3e23b655	0.15987523
45	0xbd8f4796	-0.06996076
46	0xbd66b342	-0.056323297
47	0xbe26865a	-0.16262189
48	0xbdefcaff	-0.1170864
49	0x3d790cae	0.060803108
50	0xbe802645	-0.25029197
51	0xbe1e32a0	-0.15449
52	0xbe9c9303	-0.3058091
53	0xbea4b505	-0.32169357
54	0xbeb68330	-0.35646963
55	0xbda3eaa3	-0.08003738
56	0x3d697fd0	0.057006657
57	0xbddb7c3b	-0.107170545
58	0xbd0010ba	-0.03126595
59	0x3cda86f5	0.02667568
60	0xbea06158	-0.31324267
61	0xbe60ef8e	-0.21966383
62	0xbe4ba122	-0.19885686
63	0x3c9243c6	0.017854583
64	0xbdc084fb	-0.09400364
65	0xbe09ce92	-0.13457707
66	0x3e02944c	0.12751883
67	0x3db6c4ff	0.08924293
68	0xbd2edd43	-0.04269148
69	0xbdabe266	-0.083927915
70	0xbb319d1c	-0.00271017
71	0x3dd378ba	0.10325761
72	0x3d9ebba9	0.07750637
73	0x3d841133	0.06448593
74	0xbd46bcfd	-0.048520077
75	0x3d54730a	0.051867522
76	0x3da0c9f8	0.078510225
77	0x3dccd36b	0.10001262
78	0xbd4a1872	-0.04933972
79	0xbb09bec4	-0.0021018246
80	0x3e3eac06	0.18620309
81	0x3de67755	0.112532295
82	0x3e2760b2	0.1634548
83	0xbd890aca	-0.06691511
84	0xbd456114	-0.048188284
85	0x3d1e2f97	0.038619604
86	0xbe06e0bc	-0.13171667
87	0x3c25b12b	0.010113041
88	0x3d86d700	0.06583977
89	0xbc863705	-0.016383657
90	0xbd2ad5c5	-0.041707773
91	0xbdb579d5	-0.08861128
92	0xbcade1ca	-0.021225829
93	0xbde11070	-0.10989463
94	0xbd7a7361	-0.06114519
95	0x3d87c606	0.06629567
96	0x3dad7903	0.08470347
97	0x3e019b67	0.12656938
98	0xbb693c1e	-0.003558881
99	0xbd19464a	-0.03742055
100	0xbe81bb49	-0.253382
101	0xbde21112	-0.11038412
102	0xbe2bc11e	-0.16772887
103	0xbe2cb5d0	-0.16866231
104	0x3dbff38c	0.09372625
105	0x3cd1e298	0.025620744
106	0xbcee7ea3	-0.02911312
107	0x3e452812	0.19253567
108	0x3c0bab48	0.008524723
109	0x3d528c5f	0.0514034
110	0xbd6028ff	-0.054726597
111	0xbe730490	-0.23732209
112	0x3de09637	0.10966151
113	0x3dd53125	0.10409764
114	0xbd0d17a9	-0.034446392
115	0x3da2a620	0.07941842
116	0xbe08fe58	-0.13378274
117	0x3d3c048b	0.04590277
118	0x3d309ff2	0.043121286
119	0xbca664b4	-0.02031169
120	0xbc2e9f20	-0.010658056
121	0xbd45306a	-0.048141874
122	0xbdb3940d	-0.08768473
123	0xbdfa206d	-0.12213216
124	0xbd26403e	-0.04058861
125	0x3e648d7c	0.22319597
126	0xbdc0010a	-0.09375198
127	0x3d615d78	0.05502078
128	0xbd4171ba	-0.0472276
129	0xbb333123	-0.002734252
130	0xbd2f9d19	-0.04287443
131	0x3d6a4321	0.057192925
132	0x3e4032e9	0.1876942
133	0xbe0644de	-0.13112208
134	0x3d8dd2ba	0.069249585
135	0xbe031c0d	-0.1280367
136	0xbd1e7e3f	-0.038694616
137	0x3d090e40	0.033460855
138	0xbd9db1f9	-0.07699961
139	0xbd21a7f5	-0.039466817
140	0xba9fe69c	-0.0012199464
141	0xbdf0678d	-0.11738501
142	0xbd2ac973	-0.041696023
143	0x3d914062	0.07092358
144	0xbdab0f21	-0.08352495
145	0x3d83d195	0.06436459
146	0x3dba4d30	0.090967536
147	0x3da5f3e8	0.08103162
148	0x3daa4a38	0.08314937
149	0xbd8b06b6	-0.067883894
150	0x3d28e052	0.041229554
151	0xbe30048e	-0.17189237
152	0xbcec43ff	-0.028841017
153	0x3d8dfada	0.06932612
154	0x3dcc7086	0.099824
155	0x3d46a349	0.048495565
156	0x3dae5ab1	0.08513392
157	0x3e0f9fac	0.14025754
158	0x3dd25c58	0.102715194
159	0xbddaf368	-0.10690957
160	0xbd9bff22	-0.07617022
161	0xbb1d8046	-0.0024032756
162	0xbc137962	-0.009001108
163	0x3d7bb839	0.061454985
164	0x3d5f71cd	0.05455189
165	0xbd6314ab	-0.055439632
166	0xbd744a58	-0.059641212
167	0xbd5ba998	-0.053628534
168	0x3d8a6ddf	0.067592375
169	0x3b8968f9	0.004193422
170	0xbd14ffe9	-0.036376867
171	0xbd782f2b	-0.060591858
172	0xbdc9094e	-0.09816228
173	0x3d446d6d	0.04795592
174	0x3d9fca4f	0.07802259
175	0xbde986bd	-0.114026524
176	0xbd4b512d	-0.049637962
177	0xbd520de1	-0.051282767
178	0xbbee6581	-0.007275284
179	0xbba995f7	-0.005175348
180	0x3e11cd28	0.14238417
181	0xbcb817ca	-0.022472281
182	0xbdbcb069	-0.09213335
183	0x3cc64e8f	0.024207382
184	0xbd4d04c1	-0.05005336
185	0x3d234270	0.03985828
186	0xbc4df247	-0.01256997
187	0xbc5e8189	-0.013580688
188	0xbd907162	-0.07052876
189	0xbe359a98	-0.17734754
190	0xbe1a8a3d	-0.15091796
191	0xbdd0636b	-0.101752125
192	0x3d644d8b	0.055738013
193	0x3e21c074	0.15796071
194	0x3e43dc5d	0.1912703
195	0x3e1ec35f	0.15504216
196	0xbc7d4e9a	-0.015460635
197	0x3aad8289	0.0013237755
198	0xbe3a499f	-0.18192147
199	0xbdf7b683	-0.12095358
200	0xbe8925f6	-0.26786774
201	0xbd426889	-0.047462974
202	0x3d7416a5	0.059591908
203	0x3e1062f9	0.14100255
204	0x3cf4458e	0.029818323
205	0x3dc3b218	0.09555453
206	0xbd17ce04	-0.037061706
207	0xbe92de81	-0.28685382
208	0xbdcb63e9	-0.09931166
209	0xbd97e2fd	-0.074163415
210	0x3d4df08f	0.050278243
211	0x3ca0cc96	0.019628804
212	0x3d712d90	0.058881342
213	0x3c64f083	0.013973358
214	0xbde7aaa4	-0.11311844
215	0xbde9aa7a	-0.11409469
216	0xbc1f432c	-0.009720605
217	0xbdc8ccbf	-0.09804677
218	0x3e0f7b98	0.14011991
219	0x3d8b629d	0.06805918
220	0xbd58306e	-0.05278056
221	0xbe1870b4	-0.14886743
222	0x3cee9212	0.029122386
223	0x3e79757a	0.2436122
224	0xbc95a610	-0.018267661
225	0x3e400f9d	0.18755956
226	0xbdc9bf76	-0.098509714
227	0xbdaa1a36	-0.083057806
228	0x3d3d3db6	0.04620143
229	0xbdb8b309	-0.09018523
230	0xbdd8736f	-0.10568892
231	0xbde019da	-0.10942431
232	0xbe06b203	-0.13153844
233	0x3d28a691	0.041174475
234	0xbd630910	-0.055428565
235	0xbda8c830	-0.08241308
236	0xbddd1df4	-0.10796729
237	0xbd804dbc	-0.06264827
238	0xbe55e0ae	-0.2088649
239	0xbd0f4e40	-0.034986734
240	0x3b4fcf2b	0.0031709175
241	0x3d2e5211	0.042558733
242	0xbc735049	-0.014850684
243	0x3d700c27	0.05860534
244	0x3d9dfdc5	0.07714418
245	0x3d9f7e10	0.077877164
246	0xbd92138a	-0.07132633
247	0xbe61bfb9	-0.22045793
248	0xbe019d78	-0.12657726
249	0xbdba77a0	-0.09104848
250	0xbc1c76b7	-0.009549788
251	0x3cd5dcbe	0.026106235
252	0x3df8e275	0.12152568
253	0x3e09d284	0.13459212
254	0x3e1234b2	0.14277914
255	0x3e232d27	0.15935193

lin1.bias f4 [120]
0	0x3d9112e6	0.07083683
1	0x3b4366a9	0.002981583
2	0x3e1c296d	0.15250178
3	0x3d4b1662	0.049581893
4	0xbd024638	-0.031805247
5	0x3c82f03e	0.015983697
6	0xbcb4c829	-0.0220681
7	0xbc65f326	-0.014035022
8	0xbd484c75	-0.04890104
9	0xbd11a508	-0.035557777
10	0x3d8d576c	0.0690144
11	0x3ca55405	0.020181665
12	0xbc225376	-0.009907594
13	0x3bec1f99	0.007205915
14	0xbd36e779	-0.044654343
15	0xbd185b4d	-0.037196446
16	0xbcc4c553	-0.024019873
17	0xbd16443f	-0.03668618
18	0x3deac24c	0.114628404
19	0xbe0d9218	-0.13825262
20	0x3dad9138	0.08474964
21	0xbb21be28	-0.0024679992
22	0xbcb3c88d	-0.021946216
23	0x3d4a173e	0.04933857
24	0xbc451301	-0.012028457
25	0x3c51f951	0.012815789
26	0xbd3b5459	-0.045734737
27	0xbc5480a3	-0.0129701225
28	0xbccf9e11	-0.025343927
29	0xbd46e679	-0.04855964
30	0xbc40fa8a	-0.011778483
31	0xbce8bfcc	-0.028411768
32	0x3c1e29a7	0.009653485
33	0xbd40d20c	-0.047075316
34	0xbd1351ab	-0.035966557
35	0xbd80c750	-0.06288016
36	0xbbf77b1a	-0.0075525166
37	0xbbba1167	-0.005678344
38	0x3df1aa16	0.118000194
39	0xbcd685bb	-0.026186815
40	0xbcdcb2e9	-0.02694078
41	0x3e020e47	0.12700759
42	0x3a123264	0.0005576967
43	0x3c9354cd	0.017984772
44	0xbb8b0cff	-0.0042434926
45	0xbd5c4a3b	-0.05378173
46	0x3dd9de4c	0.10638103
47	0x3dcfcaaf	0.10146081
48	0xbd3bd755	-0.045859654
49	0xbd1e5b06	-0.038661025
50	0xbd12c74c	-0.035834596
51	0xbd209d81	-0.039212707
52	0xbd69e1a5	-0.057099957
53	0xbcb2a4bb	-0.021807065
54	0xbd6e0e09	-0.058118854
55	0x3d1c302c	0.038131878
56	0x3c0b2678	0.008493058
57	0xbcd4c290	-0.02597168
58	0x3d5d4c7b	0.054028016
59	0xbcacaf3d	-0.021079654
60	0x3d2c28a9	0.042030964
61	0x3d906784	0.07050994
62	0xbd45eeff	-0.048323628
63	0x3e0eaed6	0.13933882
64	0xbd59d527	-0.053181794
65	0xbd777b85	-0.06042053
66	0x3d2f6428	0.042820126
67	0xbaa48d9a	-0.0012554408
68	0xbcead2b0	-0.028664917
69	0xbccd835c	-0.025087051
70	0x3d350964	0.04419841
71	0xbd5c3c35	-0.053768355
72	0x3c7e5d31	0.015525148
73	0xbda236d9	-0.079206176
74	0x3d9cc24a	0.07654245
75	0xbc8ba0e4	-0.017044492
76	0x3b0cb268	0.0021468643
77	0xbbe77310	-0.007063277
78	0xbd39f4e4	-0.04539956
79	0xbd309089	-0.04310659
80	0x3b9eeca6	0.004849988
81	0xbd0f7086	-0.03501942
82	0xbd134b88	-0.035960704
83	0xbbde84e8	-0.006790746
84	0xbd8a1827	-0.06742888
85	0xbc90fd28	-0.01769884
86	0xbc59ec7b	-0.01330101
87	0x3d860af5	0.06545059
88	0x3d4a5db9	0.049405787
89	0xbd436322	-0.047701962
90	0xbb244d09	-0.002507033
91	0x3cb9d64f	0.022685198
92	0xbd7109d8	-0.05884728
93	0x3d4b7428	0.049671322
94	0x3d14b253	0.036302876
95	0xbcf99b1c	-0.03046947
96	0xbd7682bd	-0.060183275
97	0xbcbcafb0	-0.023032993
98	0x3be01dbb	0.0068394816
99	0xbd8ecff2	-0.06973256
100	0x3cd25dbb	0.02567946
101	0x3d1b4593	0.037908148
102	0xbdf49748	-0.11942917
103	0x3db71fa3	0.08941581
104	0xbcdaa6c7	-0.026690854
105	0x3cbfe3c9	0.023424046
106	0x3c33e7c2	0.010980548
107	0xbb08050e	-0.0020754966
108	0xbd18d561	-0.03731287
109	0xbb8f4709	-0.0043724817
110	0xbd6804ef	-0.05664533
111	0x3dba6e72	0.09103097
112	0x3d241026	0.040054463
113	0xbdaf2773	-0.08552446
114	0x3d1be5c9	0.038060937
115	0xbbccb7d2	-0.006247499
116	0x3e00cc54	0.12577945
117	0xbcb113f6	-0.021615963
118	0x3d8d830b	0.0690976
119	0x3c8e385e	0.017360862

lin2.weight f4 [84, 120]
0	0xbceaf55c	-0.02868145
1	0x3e883918	0.2660606
2	0x3b943742	0.004523189
3	0x3e20bbd6	0.15696654
4	0x3d3b01b4	0.04565592
5	0x3e0c9c0a	0.13731399
6	0xbcb23a0b	-0.021756193
7	0xbd4eaa5c	-0.050455436
8	0xbe34f08c	-0.17669886
9	0x3d62bcd0	0.055355847
10	0xbc967d5f	-0.018370328
11	0xbd0e7fba	-0.03478978
12	0xbe35bb28	-0.17747176
13	0xbe902c14	-0.2815863
14	0x3cb38495	0.021913806
15	0x3dc3e0d3	0.09564366
16	0xbc76eb80	-0.015070796
17	0x3d8af01a	0.06784077
18	0xbe073b32	-0.13206175
19	0xbea4693c	-0.32111537
20	0xbe86b908	-0.26313043
21	0x3d5075eb	0.050893705
22	0xbdb731d6	-0.08945052
23	0x3e05fbd7	0.1308435
24	0xbb83f976	-0.004027541
25	0x3c94f3d0	0.018182665
26	0x3d8c5112	0.068514004
27	0xbd30c59a	-0.043157198
28	0xbdd5d239	-0.104404874
29	0xbcdd2756	-0.026996296
30	0xbcbb6fed	-0.022880519
31	0x3d4bdb67	0.049769785
32	0x3d750709	0.059821162
33	0xbd559470	-0.052143514
34	0xba878663	-0.0010339733
35	0x3e6e55e8	0.23274958
36	0xbb43454e	-0.0029795947
37	0xbd02b6e1	-0.03191269
38	0x3e49eee5	0.19720037
39	0x3d804d5a	0.06264754
40	0xbda112da	-0.07864924
41	0xbc2bfc36	-0.0104971435
42	0xbd661043	-0.056167852
43	0xbdadd4fa	-0.08487888
44	0xbd2a3a29	-0.041559372
45	0xbda559e6	-0.080737874
46	0x3e5ba757	0.21450554
47	0x3d7e5c87	0.06209996
48	0x3d2c10a5	0.04200806
49	0x3d9ded36	0.0771126
50	0xbea504de	-0.32230276
51	0xbd8e517a	-0.06949134
52	0x3e0f9ead	0.14025374
53	0x3da777fe	0.081771836
54	0xbca46e7a	-0.02007221
55	0x3dabbadd	0.08385251
56	0x3d9c4475	0.07630245
57	0xbea0e704	-0.3142625
58	0xbdbc8053	-0.092041634
59	0x3cd67be4	0.026182123
60	0x3d48af02	0.048995025
61	0x3e061f40	0.13097858
62	0x3da234d8	0.079202354
63	0x3b2f23b9	0.0026724173
64	0x3c8ab92e	0.016934004
65	0x3d83707d	0.0641794
66	0x3dd562ff	0.10419273
67	0x3d9f1816	0.07768266
68	0x3db5fca2	0.088860765
69	0xbd8708cc	-0.06593475
70	0xbd3dc4a7	-0.04633012
71	0xbe1d38be	-0.15353677
72	0x3db29e4c	0.08721599
73	0x3d221776	0.039573155
74	0xbec6da89	-0.38838604
75	0xbea59094	-0.32336867
76	0xbe8b8252	-0.27247864
77	0x3d9a83e8	0.0754469
78	0xbcd65c5b	-0.026167085
79	0x3dadb03c	0.0848088
80	0x3c904c89	0.01761462
81	0xbd49cb25	-0.049266
82	0xbc3ba470	-0.011452779
83	0xbdaa6207	-0.083194785
84	0xbee30898	-0.44342494
85	0xbe31e345	-0.17371853
86	0xbd640b93	-0.0556751
87	0x3de2e941	0.11079646
88	0x3def25f7	0.11677163
89	0x3caa2693	0.020770347
90	0xbda71bdb	-0.0815961
91	0xbeb2de1a	-0.34935075
92	0xbe1f3864	-0.15548855
93	0xbd8d7ca5	-0.0690854
94	0xbd408378	-0.04700038
95	0xbd531595	-0.051534254
96	0xbba2dbd9	-0.0049700555
97	0x3d7448fb	0.059639912
98	0x3dfb25f5	0.12263099
99	0xbe49000d	-0.19628926
100	0x3e59464a	0.2121822
101	0xbeab2ec3	-0.33434114
102	0xbdff569b	-0.124676906
103	0xbde527f6	-0.111892626
104	0xbdd32dcc	-0.103114694
105	0xbcabced7	-0.020972652
106	0xbe6371f5	-0.2221144
107	0x3d0b06ad	0.033941913
108	0x3bb9e6f5	0.005673284
109	0xbc416a70	-0.011805162
110	0x3e1f742c	0.1557166
111	0x3ea86916	0.32892674
112	0xbe8900c3	-0.26758394
113	0xbdb6b71b	-0.08921643
114	0xbda50989	-0.08058459
115	0x3bdf430c	0.0068134125
116	0x3cfa7f41	0.030578258
117	0xbdb8f5de	-0.090312704
118	0x3dda98b6	0.106736585
119	0x3df84074	0.121216685
120	0x3df360de	0.1188371
121	0xbd003532	-0.03130073
122	0xbdc04763	-0.09388616
123	0xbde477af	-0.1115564
124	0x3da426e6	0.08015232
125	0xbdc03220	-0.093845606
126	0xbd8079d2	-0.062732354
127	0xbe041abc	-0.12900823
128	0x3c4a5c6b	0.012351136
129	0x3d9db4ec	0.07700524
130	0xbc4e8f90	-0.01260747
131	0xbda71250	-0.0815779
132	0xbe15cc9a	-0.1462883
133	0xbe677495	-0.22603066
134	0xbb8184b0	-0.003952585
135	0x3cbe1732	0.02320442
136	0xbd483e8a	-0.048887767
137	0xbd0d5b1b	-0.034510713
138	0x3df8f678	0.12156385
139	0xbe6fb129	-0.23407425
140	0x3d5414ac	0.051777527
141	0x3dc80e7c	0.09768388
142	0x3ca3b870	0.019985408
143	0xbe8b1495	-0.2716414
144	0x3d9c08a3	0.07618835
145	0xbcef19e4	-0.02918715
146	0xbd90cca0	-0.07070279
147	0x3d5b2020	0.053497434
148	0x3e670dda	0.22563878
149	0xbdc8cb0f	-0.09804355
150	0x3d823ca8	0.063592255
151	0xbd577dab	-0.05261008
152	0x3d5ae3f3	0.053440046
153	0x3d3e6414	0.04648216
154	0x3d851f99	0.065001674
155	0xbcbcc131	-0.02304134
156	0x3dc71c5c	0.09722206
157	0x3cf975e8	0.03045173
158	0x3e33379d	0.17501684
159	0xbd97114a	-0.073763445
160	0x3c0206a8	0.007936157
161	0x3da4ba6b	0.08043369
162	0xbd88c1d8	-0.06677598
163	0xbd9babf0	-0.07601154
164	0xbe2cf58b	-0.16890542
165	0xbe48b0da	-0.19598714
166	0x3cb19052	0.021675263
167	0xbe40e2c9	-0.18836512
168	0x3d166043	0.036712896
169	0xbd9ca4dd	-0.07648633
170	0x3da6574d	0.0812212
171	0xbd675f78	-0.05648753
172	0x3daeb825	0.085312165
173	0xbd8a1039	-0.067413755
174	0xbe841cfe	-0.2580337
175	0x3b359ba6	0.0027711182
176	0xbe002d8d	-0.12517376
177	0x3dd8f553	0.10593667
178	0x3e1b510d	0.15167637
179	0xbdec51cd	-0.1153904
180	0xbdb2f51d	-0.08738158
181	0xbcf185fd	-0.029482836
182	0x3c625e60	0.013816446
183	0x3e2cba02	0.16867831
184	0xbd860e9b	-0.065457545
185	0x3cf5b9eb	0.02999588
186	0x3db3dad9	0.08781976
187	0xbd0d50ea	-0.034500994
188	0xbe98e488	-0.29861856
189	0x3bab81a0	0.0052339584
190	0xbe380dc5	-0.17974003
191	0xbe02716a	-0.12738577
192	0x3dd8d22e	0.105869636
193	0xbd5f1e8a	-0.054472484
194	0x3e12f182	0.1434994
195	0x3dfd42df	0.1236627
196	0xbe09b90e	-0.13449499
197	0x3d027351	0.031848256
198	0x3dce453a	0.10071798
199	0xbda46e22	-0.08028819
200	0xbd471382	-0.04860259
201	0x3c6dcb4c	0.014513802
202	0xbe8845fe	-0.266159
203	0xbdbbca2b	-0.0916942
204	0xbe6095e7	-0.21932183
205	0xbcd7a1eb	-0.026322326
206	0x3ccc5f7d	0.024947876
207	0xbbc64ba9	-0.0060515
208	0x3e4565ce	0.19277117
209	0xbdb7dc6c	-0.08977589
210	0x3e399de6	0.1812664
211	0xbdd2d583	-0.102946304
212	0x3c1ba546	0.0094998535
213	0xbd599b00	-0.053126335
214	0xbd67f562	-0.0566305
215	0xb97f0600	-0.0002432093
216	0xbe5c304b	-0.21502797
217	0x3d9fc60d	0.07801447
218	0xbde953a6	-0.11392908
219	0x3e025ead	0.12731428
220	0x3df5103d	0.11965988
221	0xbd0f30b4	-0.034958556
222	0xbc92f72a	-0.017940123
223	0x3dc87bfd	0.09789274
224	0x3e871b4d	0.26388016
225	0x3d05fb40	0.032710314
226	0x3da74928	0.0816825
227	0x3e6dc40e	0.2321932
228	0x3c8bb70d	0.017055059
229	0x3d5a0617	0.053228464
230	0x3e045364	0.12922436
231	0xbcdc5598	-0.026896283
232	0xbe1adb35	-0.15122683
233	0xbe9279a9	-0.28608444
234	0xbdd76cf9	-0.10518832
235	0x3c710470	0.014710531
236	0xbda8623f	-0.08221864
237	0xbd633dfa	-0.055479027
238	0xbec9ce9a	-0.39415437
239	0xbe027db4	-0.12743264
240	0x3cc108d7	0.023563785
241	0xbdc7b499	-0.09751243
242	0x3930bda2	0.00016855312
243	0x3bb70c89	0.005586211
244	0xbcd2812c	-0.02569636
245	0xbd607c0b	-0.054805797
246	0x3d41fba8	0.04735914
247	0xbd96ed5c	-0.073694915
248	0xbdb5c3e5	-0.088752545
249	0xbd9709dd	-0.07374928
250	0xbd0e9cb8	-0.034817427
251	0x3bcbc960	0.006219074
252	0xbb43ed20	-0.0029895976
253	0xbdbef521	-0.093240984
254	0xbdab0b0d	-0.08351717
255	0xbd8c239e	-0.06842731

lin2.bias f4 [84]
0	0x3cbade3c	0.022811048
1	0x3c7c1797	0.015386484
2	0x3c40d035	0.01176839
3	0xbcf186e8	-0.029483274
4	0x3d936bfb	0.0719833
5	0x3d2a7968	0.04161969
6	0xbc970014	-0.018432654
7	0x3e3cf2d1	0.18452002
8	0xbcc9e741	-0.024646403
9	0xbcf615d1	-0.0300397
10	0x3de97132	0.113985434
11	0xbe1de2d1	-0.15418555
12	0x3de2b5da	0.11069842
13	0x3d30fe94	0.043211535
14	0xbe04c9df	-0.12967633
15	0x3c2d05ea	0.010560492
16	0x3e0e7245	0.13910778
17	0x3dc0af1c	0.094083995
18	0x3cb94a7f	0.02261853
19	0xbcd5a821	-0.026081147
20	0x3d83e0f9	0.064393945
21	0x3d868578	0.06568426
22	0x3bfc7028	0.0077037998
23	0x3d932135	0.07184068
24	0x3e35d07b	0.1775531
25	0xbd204917	-0.039132204
26	0x3cb28f5c	0.021796875
27	0x3d016a95	0.031595785
28	0xbd490474	-0.049076512
29	0xbc4d5657	-0.012532792
30	0xbdedad50	-0.11605322
31	0x3e378d27	0.17924939
32	0x3e598112	0.21240643
33	0x3d2da95c	0.04239784
34	0x3a91c19f	0.0011120326
35	0xbc4cfedb	-0.012511934
36	0x3de53215	0.11191193
37	0xbdf337cc	-0.11875877
38	0x3e0e819b	0.13916628
39	0xbd51e9ef	-0.051248487
40	0x3b875c9f	0.0041309143
41	0x3c8598de	0.016308244
42	0xbc36d450	-0.011159018
43	0x3e34fcfb	0.1767463
44	0xbd6bd051	-0.057571713
45	0x3e12026e	0.1425874
46	0x3d91a5f9	0.07111735
47	0x3d69be90	0.0570665
48	0x3ca7e408	0.020494476
49	0x3df41fb1	0.11920107
50	0xbbf1210e	-0.0073586768
51	0x3d8816c0	0.06644964
52	0x3ce52373	0.027971005
53	0x3d6fc80f	0.0585404
54	0x3dcf1977	0.10112279
55	0xbe0a3965	-0.13498457
56	0x3dda4e05	0.10659412
57	0x3c82936b	0.015939435
58	0x3d26fac1	0.04076648
59	0xbd4d8f1d	-0.05018531
60	0x3d195e04	0.037443176
61	0x3d6911f1	0.056901876
62	0xbe1d7ffa	-0.1538085
63	0xbdac8ed6	-0.08425681
64	0x3d8d304c	0.068939775
65	0x3e227700	0.15865707
66	0xbc9a2573	-0.018816685
67	0x3c84622b	0.016160091
68	0x3cdd5d25	0.027021954
69	0xbc9e29cd	-0.019307042
70	0xbde56dbb	-0.1120257
71	0x3d9004c4	0.07032159
72	0x3c6316f3	0.013860452
73	0xbd8aa02c	-0.067688316
74	0x3e28b298	0.16474378
75	0xbd9499a9	-0.07255871
76	0x3d46a9f7	0.048501935
77	0xbd6e88ff	-0.05823612
78	0x3bc495ca	0.0059993016
79	0xbdd299f1	-0.10283268
80	0x3d61e3ae	0.055148773
81	0x3d1ef340	0.0388062
82	0xbe04210f	-0.12903236
83	0x3d4710e9	0.04860011

lin3.weight f4 [10, 84]
0	0xbca1e767	-0.019763662
1	0x3e87086a	0.26373607
2	0xbdb077a4	-0.0861657
3	0x3da8b905	0.08238415
4	0xbe5790be	-0.21051309
5	0xbd24e73c	-0.040259585
6	0xbe1d9117	-0.15387379
7	0x3e09b5ee	0.13448307
8	0xbd18a057	-0.037262287
9	0x3d415ae8	0.047205836
10	0xbdadcd22	-0.084863916
11	0xbea6ee88	-0.3260386
12	0xbe1b7a27	-0.15183316
13	0xbe5410d0	-0.20709538
14	0xbbce615c	-0.0062982272
15	0xbd8499c1	-0.06474639
16	0xbe9e343a	-0.3089922
17	0x3cdcddf4	0.026961304
18	0x3d85ef94	0.065398365
19	0xbde5c33b	-0.11218878
20	0xbd8245ad	-0.06360946
21	0x3e14a044	0.14514261
22	0xbdcff2ef	-0.10153758
23	0xbd27858a	-0.040898837
24	0x3c0ea55d	0.008706418
25	0xbdbfcb4c	-0.09364948
26	0x3e15a814	0.14614898
27	0x3d9d20ae	0.07672249
28	0x3d7399b5	0.05947276
29	0x3e56df10	0.20983529
30	0xbd6b51e8	-0.05745116
31	0x3ddfdcf6	0.10930817
32	0xbe887068	-0.2664826
33	0xbe8d727b	-0.27626404
34	0xbf3d6f13	-0.7399761
35	0xbe163c05	-0.14671333
36	0xbe5f6dc7	-0.2181922
37	0xbd552faa	-0.05204741
38	0xbe4401d9	-0.1914133
39	0xbddccfa2	-0.1078179
40	0x3e12563c	0.14290708
41	0x3e0a3c77	0.13499628
42	0xbe1cf76e	-0.15328762
43	0xbd367b92	-0.04455144
44	0xbe860a19	-0.2617958
45	0x3d7803c4	0.060550466
46	0xbbbb883a	-0.0057230266
47	0xbe2f1af5	-0.17100127
48	0xbc735aa9	-0.014853158
49	0xbd773aca	-0.0603588
50	0xbdf8fd8d	-0.12157736
51	0xbc911d88	-0.017714277
52	0x3d5834b4	0.052784637
53	0x3b949e7c	0.0045354944
54	0xbe9eeb52	-0.3103891
55	0x3cd9bc0a	0.026578922
56	0x3dcfddc9	0.10149724
57	0x3e64033a	0.22266856
58	0xbdf2bb6a	-0.11852153
59	0xbd4c4cff	-0.049878117
60	0xbe053ddf	-0.13011883
61	0x3d80e860	0.06294322
62	0xbe2ebf4e	-0.17065164
63	0xbe691eb4	-0.22765619
64	0x3e09d1ef	0.1345899
65	0xbd6cac69	-0.05778161
66	0xbd315c36	-0.04330083
67	0x3e1fe989	0.1561643
68	0xbe9e915a	-0.3097027
69	0x3d8f6083	0.0700083
70	0xbdc6a786	-0.09699921
71	0x3e6a5367	0.22883378
72	0x3ded4309	0.115850516
73	0xbe8fb398	-0.28066707
74	0xbe3a77d1	-0.18209769
75	0x3d3629ab	0.04447333
76	0x3df26c76	0.118370935
77	0x3d3eaa94	0.046549395
78	0xbd5c9c4f	-0.053860005
79	0x3c746240	0.014916003
80	0xbd7742c5	-0.06036641
81	0xbe8a5e15	-0.27024904
82	0x3d223797	0.039603796
83	0xbd00299f	-0.031289693
84	0xbdb291a9	-0.08719189
85	0x3e557075	0.2084368
86	0xbc11efea	-0.008907298
87	0xbe713a82	-0.23557475
88	0xbe3f3871	-0.18673874
89	0x3e1260e4	0.14294773
90	0x3d666da8	0.05625692
91	0xbea1b369	-0.31582192
92	0x3e115bbd	0.14195152
93	0xbdce78bb	-0.10081621
94	0xbe9faeb4	-0.31187975
95	0x3d829b66	0.06377296
96	0xbe800a41	-0.25007823
97	0x3e1f2a41	0.15543462
98	0x3e60feb7	0.21972166
99	0xbeb0e87e	-0.34552377
100	0xbe01b3ef	-0.12666295
101	0x3d924056	0.07141177
102	0x3deac51d	0.114633776
103	0x3e2981d8	0.16553438
104	0x3dcd79c3	0.1003299
105	0x3d970071	0.07373131
106	0xbd1c5149	-0.038163457
107	0xbd696b0b	-0.05698685
108	0xbcbfa207	-0.02339269
109	0x3e00ed25	0.12590463
110	0x3b54c05e	0.0032463293
111	0xbe77e81b	-0.24209635
112	0xbcd110c6	-0.025520694
113	0xbdfa9ed5	-0.12237326
114	0x3d897fc5	0.06713823
115	0xbe16207c	-0.1466083
116	0xbd006bc7	-0.031352784
117	0x3d50c080	0.050964832
118	0x3e7cb409	0.24678053
119	0xbe9a038c	-0.3008083
120	0x3d91d3df	0.07120489
121	0xbdf87fc5	-0.12133745
122	0x3e021291	0.12702395
123	0x3cc2402a	0.023712236
124	0xbe9bdd2d	-0.3044218
125	0xbeffb311	-0.49941304
126	0xbeafb66d	-0.34318867
127	0xbe005f49	-0.12536348
128	0xbea8e7fc	-0.3298949
129	0x3d9b3214	0.07577911
130	0x3e0d4678	0.13796413
131	0xbe5d67f4	-0.21621686
132	0xbcfcde90	-0.030867845
133	0xbe007127	-0.12543164
134	0x3cdcef2b	0.026969513
135	0x3d6fcbdd	0.05854403
136	0xbe485ba8	-0.19566214
137	0x3e39356e	0.18086788
138	0xbdfd288b	-0.123612486
139	0xbd0bd64e	-0.034139924
140	0xbe38b3d7	-0.18037353
141	0xbe325429	-0.17414917
142	0x3d6ceab5	0.05784102
143	0xbe058463	-0.13038783
144	0x3cd8b4e9	0.026453452
145	0xbe3f1bfa	-0.18663016
146	0xbc056df2	-0.008143889
147	0x3e105c79	0.14097776
148	0xbea85562	-0.32877642
149	0xbe6d1949	-0.23154177
150	0xbe7917f1	-0.24325539
151	0x3d8b16c2	0.0679145
152	0xbe726190	-0.2367003
153	0x3dca25fa	0.09870525
154	0x3e2a4f2f	0.16631769
155	0x3e041140	0.12897205
156	0xbe32d6b2	-0.17464712
157	0x3d1ca656	0.038244568
158	0x3c745961	0.014913888
159	0x3d23bf66	0.039977454
160	0xbe72163d	-0.23641296
161	0x3df39c50	0.118950486
162	0xbdace67d	-0.084424
163	0xbdfe3b90	-0.124137044
164	0x3e0359bc	0.128272
165	0x3caa8af0	0.020818204
166	0xbcbb1317	-0.022836251
167	0x3d8d89ab	0.06911024
168	0xbe47abb6	-0.19499096
169	0xbde90581	-0.11378003
170	0x3c9aebc8	0.018911257
171	0x3d36699f	0.044534322
172	0x3d024805	0.031806964
173	0xbe586cde	-0.2113528
174	0x3e713eda	0.23559132
175	0x3e231082	0.15924266
176	0x3de5cdf3	0.11220922
177	0xbea0ffcd	-0.3144516
178	0x3d518f1c	0.05116187
179	0x3d8d943a	0.069130376
180	0x3de6de94	0.11272922
181	0x3bf66947	0.0075198743
182	0xbda1a5d7	-0.078929596
183	0xbe0121d4	-0.1261056
184	0xbe820281	-0.25392535
185	0xbe856e1c	-0.2606057
186	0x3d9438bc	0.07237384
187	0xbde27257	-0.11056965
188	0xbe003558	-0.12520349
189	0x3e3c922c	0.18415135
190	0xbd741cb9	-0.059597705
191	0x3e0a88fb	0.13528816
192	0x3d0e1948	0.03469208
193	0xbb579f45	-0.0032901329
194	0x3d2ca34c	0.04214792
195	0xbe5f1359	-0.21784724
196	0xbde384b9	-0.11109299
197	0xbe835e21	-0.25657752
198	0xbb119377	-0.002221314
199	0xbd5f604f	-0.054535206
200	0x3e3ba0f6	0.1832312
201	0x3dc130b4	0.094331175
202	0xbe8b2ad7	-0.27181122
203	0xbcf10d28	-0.029425219
204	0x3e203cb8	0.15648162
205	0xbd0796b0	-0.03310269
206	0xbd8429a2	-0.06453253
207	0x3e0e2187	0.13879977
208	0xbcc6c33d	-0.024263019
209	0xbd40830d	-0.04699998
210	0xbe4ed91c	-0.20200008
211	0xbd1b8083	-0.037964355
212	0x3d809e53	0.06280198
213	0xbe9ae87d	-0.302555
214	0xbe3211f7	-0.17389666
215	0x3dee6f11	0.11642278
216	0xbe55d7cd	-0.20883103
217	0xbd6ec54d	-0.05829363
218	0xbd8f700a	-0.07003792
219	0xbd8c6433	-0.06855049
220	0x3e3a9e76	0.1822451
221	0x3e197800	0.14987183
222	0xbe30322a	-0.17206636
223	0xbca2e74b	-0.01988568
224	0xbda8b9cc	-0.08238563
225	0xbdc54876	-0.096329615
226	0x3e107f7d	0.14111133
227	0xbe187ca7	-0.14891301
228	0x3d240d6d	0.040051866
229	0xbe1d1dc9	-0.15343393
230	0xbd78231c	-0.060580358
231	0xbe681d65	-0.22667463
232	0x3e06ceef	0.13164876
233	0xbe17466c	-0.14772958
234	0x3e9ff900	0.3124466
235	0xbe013180	-0.12616539
236	0x3e299b6a	0.16563192
237	0xbe516a0a	-0.20450607
238	0x3d482e6a	0.04887239
239	0x3d6ce6c1	0.05783725
240	0xbe3ace40	-0.1824274
241	0x3d69bcaf	0.05706471
242	0xbdbfe36f	-0.093695514
243	0xbe81240c	-0.25222814
244	0x3e584726	0.21120891
245	0xbe3d7b6e	-0.18504116
246	0xbd74a5db	-0.059728485
247	0x3d6a9dff	0.057279583
248	0xbecc2c7d	-0.39877692
249	0xbe21d1f7	-0.15802751
250	0x3d68a5a3	0.05679859
251	0xbe564c10	-0.20927453
252	0xbe8be9e2	-0.27326876
253	0xbe10012e	-0.1406295
254	0x3d98c9db	0.07460376
255	0xbe674459	-0.22584666

lin3.bias f4 [10]
0	0x3d8d5bdc	0.069022864
1	0xbde16af3	-0.11006727
2	0x3dfcbe3c	0.12340972
3	0xbdb0f1ca	-0.086398676
4	0xbd880321	-0.06641222
5	0x3cf1d9e1	0.029522838
6	0xbd82cbd2	-0.06386532
7	0xbd74d74a	-0.05977563
8	0x3e54296b	0.20718925
9	0x3d07755d	0.03307091
